artifacts/hydrophone_model.pt (torch, 71947 bytes, 8 tensors)

model.0.weight f4 [64, 3]
000000 f3 21 cf bc 45 ee 31 3e 7d 26 ee be ae ce 46 be
       -0.025284743 0.17376049 -0.4651374 -0.1941478
000010 ad 78 e0 be f0 3e 8c be 48 1d a8 be f6 ee 71 be
       -0.43842068 -0.27391768 -0.3283484 -0.23626313
000020 24 1c f0 3e 68 ad 98 3e 53 d2 54 3e 76 27 5f 3e
       0.4689647 0.29819798 0.20783357 0.21792397
000030 52 e4 d3 be 8d 56 10 bf 2f 22 23 bd b5 9b df be
       -0.41385132 -0.56382066 -0.039827522 -0.43673483
000040 45 e6 0d 3f a4 8f 09 3f 10 bb fc 3d 98 2e 1f 3e
       0.5542949 0.53734803 0.12340367 0.15545118
000050 63 a6 8f be 72 ca 3f bd 63 03 ef 3b 3f 3a eb 3d
       -0.2805663 -0.046823926 0.007294105 0.11485719
000060 58 7f f6 3d 4e 91 09 3f c1 89 82 be 25 8b 7a 3e
       0.12036008 0.5373734 -0.25495723 0.24467142
000070 00 4c 81 bc a0 7a 20 bf ee eb 90 3e b4 04 de 3e
       -0.01578331 -0.6268711 0.28305 0.43362963
000080 8c 11 10 3f 47 57 bc 3d e2 e2 3e be 96 49 9b be
       0.56276774 0.09196334 -0.18641236 -0.3032958
000090 b5 2f c2 3e 8c 4e f2 be 8a 21 e9 be 98 14 d6 3e
       0.37927023 -0.47325552 -0.455334 0.41812587
0000a0 f4 96 1d be 02 4c d8 3d b8 f6 8f 3d 5c 4b 42 be
       -0.15389615 0.10561372 0.0702948 -0.1897406
0000b0 a8 f3 8e 3d de 00 a7 3e 10 12 09 bd dc c3 c0 bd
       0.069800675 0.3261785 -0.03346449 -0.09412357
0000c0 88 73 25 be 88 e1 11 bf 44 bf 13 3e 85 69 25 be
       -0.16157353 -0.5698476 0.14428431 -0.16153534
0000d0 81 dc ef be 4e 70 fc 3e 28 4d 84 3e b1 88 70 bd
       -0.4684792 0.49304432 0.25840116 -0.05872411
0000e0 02 f2 c4 be a8 f7 b7 bd e2 af b8 3e ec 95 20 be
       -0.38465887 -0.089827836 0.36071688 -0.1568219
0000f0 cc 9a 90 3e 80 67 70 bc fc 60 00 3f 64 88 17 bf
       0.282431 -0.014673114 0.50147986 -0.5919249
000100 cf 66 c4 3d c4 8d 25 bf 58 e2 07 3f 74 c7 72 3e
       0.09589922 -0.6466944 0.5307975 0.23708898
000110 80 ae e3 3e 30 e8 0b 3e 4c 39 12 3f 9a e9 0f 3f
       0.4446907 0.13662791 0.5711868 0.5621582
000120 55 39 fd bd 59 b1 bd 3e 37 15 85 3a 9a 7b e8 be
       -0.12364451 0.37049368 0.0010153417 -0.454068
000130 ce cd 8b 3e b4 19 0a 3e 12 18 a3 3e 80 98 07 3e
       0.27305454 0.13486367 0.31854302 0.13241768
000140 50 98 0f 3d a5 3b ad be b0 06 55 3e 66 1c 1c be
       0.035057366 -0.33834568 0.20803332 -0.15245208
000150 44 13 47 3e 70 7f 0e 3f 48 75 05 3f e0 b4 db 3d
       0.19440943 0.55663204 0.5213208 0.107278585
000160 f0 a9 51 bd 24 b5 ca bd 48 24 e9 3e 94 fb 8d 3e
       -0.051187456 -0.09897831 0.45535493 0.27731
000170 c0 3f c4 bc 9e df 09 3f 50 a5 7e 3d 06 b6 08 3f
       -0.02395618 0.5385684 0.062169373 0.53402746
000180 0a 7d ba be ff c0 44 bc 15 bf 31 3f 70 67 0c 3f
       -0.36423522 -0.0120089045 0.69432193 0.54845333
000190 5c dc 0b 3e 7e b1 23 be 22 fb 5c be 6a e3 b9 3d
       0.13658279 -0.15985677 -0.21580175 0.09076579
0001a0 e5 f6 f7 3d 48 6d ee be 44 5d 89 3e da 4f b6 3e
       0.12107638 -0.4656775 0.2682897 0.35607797
0001b0 8f 1d f8 3e 36 cd 62 bd 67 76 1c bf ad 81 43 be
       0.4846005 -0.055371486 -0.6111817 -0.19092436
0001c0 70 56 93 bd 24 c7 a4 be 98 9c ee 3e f4 d5 72 be
       -0.07194221 -0.32183182 0.46603847 -0.23714429
0001d0 80 37 17 bd 89 fe df be e0 f1 ab 3c 80 32 66 be
       -0.036918163 -0.43748882 0.020989358 -0.22480202
0001e0 fa 3d b3 be 66 c9 d8 3e f6 79 a8 3e ff 06 0f bf
       -0.35008222 0.42341155 0.3290555 -0.5587005
0001f0 c3 e0 31 bf 03 da 24 3e 03 27 ed 3d 79 f3 9d 3d
       -0.69483584 0.1609879 0.115797065 0.07712454
000200 b5 e9 96 3e 10 f8 44 3d 4c 31 b4 3e 00 40 3b 3e
       0.2947518 0.048088133 0.3519386 0.18286133
000210 52 af bb 3e 89 ff dc be 78 cf 03 bf 75 0b b2 be
       0.36657196 -0.43163708 -0.5148845 -0.34774366
000220 2b 3b bf 3e 1b f4 4a 3d 5d f4 0d 3f 87 e2 c8 3e
       0.3734983 0.049549203 0.55450994 0.39235327
000230 2e 6c 67 3d 80 06 db 3d 41 89 8c 3e 9f cc ad 3c
       0.056499653 0.10694599 0.27448466 0.021215735
000240 e6 aa b3 3e 00 1b 34 3e 8e 1e 0b bf c6 f1 87 3e
       0.35091323 0.17588425 -0.543435 0.26551646
000250 e2 e4 c6 3e b6 a5 0e be a0 12 71 3e 68 2e 66 be
       0.388465 -0.13930401 0.23542261 -0.2247864
000260 20 0e 73 3e 16 0d 08 bf ac 85 05 3e 4c bc d8 bd
       0.23735857 -0.5314497 0.13039273 -0.1058279
000270 a4 8b 9f 3e 72 b0 04 3f f8 93 97 bd ff a5 05 3e
       0.31161225 0.51831734 -0.0740127 0.13051604
000280 24 c1 da 3d d0 36 a5 3d ac c2 03 be 4f ce 41 3e
       0.1068137 0.08067095 -0.1286723 0.18926357
000290 be 63 7f be 51 df 0f bf 91 95 d4 be b4 a1 18 bf
       -0.24940392 -0.5620013 -0.4152036 -0.5962174
0002a0 81 a4 a0 3e 07 33 99 bd e9 85 0d 3f 8c 69 8f 3e
       0.31375507 -0.07480436 0.55282456 0.28010213
0002b0 71 b0 a1 3c bc 3c 39 be c1 4d 57 3e 1f a4 f1 bd
       0.019737454 -0.18089575 0.21025755 -0.11798882
0002c0 63 9e 19 3e 2a 6b 72 be ec c8 b3 bd 65 fc c2 be
       0.15001826 -0.23673692 -0.08778557 -0.38083187
0002d0 b0 83 bd bd cc 6c b4 be 92 a1 ea be 96 4b a0 be
       -0.09253633 -0.35239255 -0.45826393 -0.31307667
0002e0 8b 47 9a 3d 71 f3 4f 3e d2 e7 27 be 3c 09 70 3e
       0.07533177 0.2030771 -0.16397026 0.23441023
0002f0 90 32 1b 3d 3e 0f bc be a0 ea 1a 3e b8 3e 69 be
       0.037890017 -0.3673038 0.15128565 -0.22777832

model.0.bias f4 [64]
000000 e7 6c e0 3c c4 58 4e 3e 84 df 3e 3e 32 01 0b 3f
       0.027395679 0.20151049 0.18639952 0.542987
000010 dd da ea 3c 4f 66 09 3f 85 91 a7 be 2e b4 cc 3e
       0.028668815 0.53671736 -0.3272821 0.39981216
000020 ea 38 3f be 30 fe 85 3e 46 7d 03 bf 5f 2c 21 3d
       -0.18674055 0.26170492 -0.5136303 0.039348956
000030 2d 34 3f 3e 9c 05 c3 3e f8 1b f7 be 13 ba 10 bf
       0.18672247 0.38090217 -0.48263526 -0.56533927
000040 f8 90 c0 be 88 51 84 3e f9 16 87 3d 47 ea fe be
       -0.37610602 0.25843453 0.065961786 -0.49788114
000050 f0 d9 2f bd 62 c6 87 3e ec a4 fa be 34 5d c9 be
       -0.04293245 0.26518542 -0.4895395 -0.3932892
000060 e3 71 ee 3e 1c a1 58 be 1d 2e ae be 30 51 6c bd
       0.46571264 -0.21155208 -0.34019557 -0.057694614
000070 bc 53 02 bf e9 11 c3 be 62 58 dc be fc cb e5 bd
       -0.5090902 -0.38099602 -0.4303618 -0.112205476
000080 97 86 81 3d 54 93 d9 bd 9d 0c a0 3e ba 64 eb be
       0.06324499 -0.10623804 0.31259623 -0.45975286
000090 2f 0a d1 3e d2 d1 0f 3f 54 31 d4 be 5c 8b 17 be
       0.40828082 0.56179535 -0.41443884 -0.14799255
0000a0 b8 8e 44 3e 04 f1 ad 3e cc 3b fa 3e 08 57 92 bd
       0.19195068 0.33972943 0.48873746 -0.07145506
0000b0 70 9c 80 be 95 d2 a5 3e f8 6c 06 3f d5 e4 01 3f
       -0.25119352 0.32387224 0.52510023 0.50739795
0000c0 ba 78 21 be 30 74 0b bd d7 c4 80 be 4e a2 85 be
       -0.1576871 -0.034046352 -0.25150177 -0.2610039
0000d0 a8 6b a6 bd 54 31 24 ba ce 6f 12 3f 5b 3b 50 3d
       -0.081260026 -0.0006263454 0.5720185 0.050837856
0000e0 48 ef d0 3e f2 53 ee 3e f2 db 86 3d d6 e2 5a be
       0.40807557 0.4654842 0.0658492 -0.21375594
0000f0 20 d6 bb be ad e7 63 3d d4 64 73 be 10 78 d9 be
       -0.36686802 0.055640865 -0.23768932 -0.42474413

model.3.weight f4 [128, 64]
000000 ce 51 e8 bc 35 5d 09 3e aa 11 0e bc 6f fe 24 bd
       -0.02835932 0.13414462 -0.008671204 -0.04028171
000010 18 f5 bf bd dd c1 97 3d 40 3b da bb 2e 63 ac bd
       -0.0937292 0.07410023 -0.006659895 -0.084173545
000020 58 73 d7 bd fa 5c 8d 3c c0 d6 45 3c 25 b5 e9 3d
       -0.10520047 0.017256249 0.012075126 0.11411504
000030 d1 84 37 bd b6 0d 31 3d b8 c0 db bd c0 24 cb bc
       -0.044804398 0.043225966 -0.107301176 -0.024797797
000040 98 09 e1 bd 94 94 a3 3d 1f 87 89 3d 2e b8 d2 3d
       -0.10988158 0.079873234 0.067152254 0.10289036
000050 4c 7d bd 3d c0 a0 c3 3d 80 94 1e 3d b8 1e 8e bc
       0.09252414 0.09552145 0.03871584 -0.017348632
000060 1a ff 72 3d 90 2f e3 bc b0 25 76 bd c8 a2 fa bc
       0.059325315 -0.02773264 -0.060094535 -0.030595198
000070 c0 11 8c 3c 48 38 de 3d c8 01 82 bd 58 46 34 3d
       0.017098308 0.108505785 -0.06347996 0.044012398
000080 6a f9 ac bc ee 83 89 3d 69 f5 a4 3d 60 b1 fe bb
       -0.021115024 0.06714617 0.08054621 -0.0077726096
000090 3f f6 7b 3d 87 66 c7 bc 20 70 8b 3b b0 5b 20 3c
       0.061514135 -0.024340881 0.0042553097 0.009787485
0000a0 a6 b8 93 bd 6d 36 82 3d 3a 5e e6 bd a0 75 da 3b
       -0.07212953 0.06358037 -0.11248441 0.006666854
0000b0 a8 9b c7 3d d2 3e 88 bd 44 99 87 3d 77 ec 44 bd
       0.09746486 -0.06652607 0.0662103 -0.048077073
0000c0 60 45 e9 bb c0 2b 14 bc 80 62 d7 3c 72 02 90 bd
       -0.007118866 -0.009043634 0.026292086 -0.070317164
0000d0 4c 51 64 3d 87 84 b8 3d 6e 33 dd bd 9e 25 ad 3d
       0.055741593 0.090096526 -0.10800825 0.084544405
0000e0 9d 90 05 3d a0 08 01 be c0 af 27 b9 fa 84 91 bd
       0.032608617 -0.12600946 -0.00015991833 -0.071054414
0000f0 bc 5b 8f 3d 58 32 dd bd c4 ce b9 bd 1a 71 85 bd
       0.06999919 -0.10800618 -0.090726405 -0.06515713
000100 f0 1f 8c bd 46 07 a5 3d a2 0a 3c bc 88 ee 01 3e
       -0.06842029 0.08058028 -0.011477144 0.12688649
000110 f2 c1 eb 3d b1 09 8b bd bc 75 c4 bd 38 5e 69 3d
       0.115116015 -0.06788958 -0.095927685 0.05697462
000120 20 c3 39 bd b5 85 76 bd d0 55 7d bc b8 e8 af bd
       -0.0453521 -0.060186107 -0.015462354 -0.085893095
000130 e9 7c 13 3d 73 e7 d8 bd 5c 24 f7 3d 28 f9 cb 3d
       0.036007795 -0.105910204 0.12067482 0.09959632
000140 f4 2f ed 3d 07 20 2d bd 69 49 c7 bd 00 5e 06 3b
       0.11581412 -0.04226687 -0.09730799 0.0020502806
000150 78 96 f7 3c 5b c1 e7 3d 66 8e 94 bd 20 bc 94 bc
       0.030223116 0.113161765 -0.07253723 -0.018156111
000160 17 6c b2 bd ba 44 fd bd fc b0 9e 3d f0 7a 8c 3d
       -0.08712023 -0.12366624 0.07748601 0.06859386
000170 68 a3 c6 3c 2e 26 a5 3d 56 dc 9d 3d d8 d0 59 3d
       0.02424784 0.08063923 0.07708041 0.053177685
000180 ab 2a e4 bd 52 b1 c6 bd 08 cd a7 3d 16 da f1 bd
       -0.11140951 -0.0970179 0.081934035 -0.11809175
000190 f3 8a 7f bc 74 70 4d bc 08 71 d3 bd f0 6a 7c 3c
       -0.015597093 -0.012539018 -0.103242934 0.015406355
0001a0 a1 f3 05 3e 88 b2 e9 3d 2f 6d 68 3c 82 9b ba 3d
       0.13081218 0.11411005 0.014186188 0.09111692
0001b0 e2 02 a1 bd da 59 26 bd b4 a4 68 bc 54 0e 60 bd
       -0.07861878 -0.040613033 -0.014199425 -0.054701164
0001c0 c8 87 d9 3d 40 da 6b bd ec b9 93 bd 16 e6 81 3d
       0.10621601 -0.057581186 -0.07213196 0.063427135
0001d0 90 ff 64 3d ad 8b 9e 3c 8f d9 d5 bd 33 84 17 3c
       0.055907786 0.019353712 -0.10441887 0.009247827
0001e0 c9 30 94 3d 71 03 1a bd f7 6f e3 bc 0c d7 ff bd
       0.072358675 -0.03760094 -0.02776335 -0.12492189
0001f0 92 cb 90 3d 0a d8 00 bc c2 8b c2 3d cc ad c4 3d
       0.07070078 -0.007864008 0.09499313 0.096034616
000200 05 08 8a 3d 3a ab 0c be 5e e5 4a 3d 8c 1a 9b bd
       0.06739811 -0.13737193 0.049535148 -0.07573423
000210 a1 d5 1c bc ec b4 e8 bc 80 70 b2 bc 25 6c c7 3c
       -0.0095724175 -0.028406583 -0.02178216 0.02434356
000220 90 41 69 3d ad c9 ba bb 50 65 7b bc 01 3e 3f 3d
       0.05694729 -0.005700311 -0.015343979 0.04668999
000230 44 a4 a1 3c b1 91 61 3d 40 02 58 3c 32 e8 8e 3d
       0.019731648 0.055070583 0.01318413 0.069778815
000240 58 d0 31 3d dd 15 18 3d 61 8e da bd 8e f4 a7 bd
       0.043411583 0.037130225 -0.10671688 -0.08200942
000250 cc 9e 9e bd cf 6d 8f bd 64 36 56 3d a6 11 cf 3d
       -0.07745132 -0.07003366 0.052297965 0.10110788
000260 c4 95 1d bd 0c e2 74 3d e0 4c 06 3d b0 6d a9 bc
       -0.038472906 0.059785888 0.032788157 -0.020682186
000270 48 c0 be bc 98 8c aa bc 44 88 67 3d 2c 9f 58 bd
       -0.023285046 -0.020818993 0.056526437 -0.052886173
000280 83 57 f4 3b 90 8a 5e 3c 1c b9 a4 3d f4 83 9d bd
       0.0074567213 0.013582841 0.08043119 -0.07691184
000290 97 a4 c5 3d a9 7c 7d 3d 40 08 90 3d 10 f5 78 bc
       0.09650534 0.061886463 0.070328236 -0.015195146
0002a0 fd f8 de bd 6a e6 b2 bc 66 87 ac 3d d0 a2 53 3d
       -0.108873345 -0.021838386 0.08424263 0.051668942
0002b0 44 ea 43 3d 19 f5 0c be 11 4b 01 be d1 45 31 bd
       0.047830835 -0.13765372 -0.12626292 -0.043279473
0002c0 18 aa 25 bd 88 8e 63 3d 40 f9 c6 bb 80 c3 c7 ba
       -0.040445417 0.05555585 -0.0060721934 -0.0015240759
0002d0 88 73 87 bc b0 9c 4c bd 1b 0e dc bd db ce 05 bd
       -0.016534582 -0.049954116 -0.10744878 -0.032667976
0002e0 52 6c 59 3c 38 e3 00 be 15 da e0 bc 7c 6a 5c bd
       0.0132704545 -0.12586677 -0.02744774 -0.05381249
0002f0 e8 81 b5 3c 45 17 d7 3d 32 21 c0 bd 00 56 3f 3b
       0.02215667 0.10502485 -0.093813315 0.0029195547
000300 2a 7c 37 bd ca f5 90 bd f0 5e b1 bd 26 5d 6c bb
       -0.044796146 -0.070781305 -0.08660686 -0.0036066263
000310 1c fc f1 3d 72 04 5e 3b b4 44 0f 3d 66 fb 28 3c
       0.11815664 0.0033877161 0.03497763 0.010313844
000320 6c d3 f5 3d 14 55 37 3d e8 47 ca 3d 6f 23 c5 bc
       0.12003216 0.04475887 0.09876996 -0.024064748
000330 e7 b7 2c 3d ee 22 80 3d dc ce a8 3d 98 00 ba bd
       0.04216757 0.06256662 0.0824258 -0.090821445
000340 24 ba 9f 3d 6b f6 c8 bd 4f 7e a6 3d 90 97 ca bc
       0.077991754 -0.098126255 0.0812956 -0.024730474
000350 00 3a 9b ba 81 9e 16 bb 00 29 31 bc 0c 28 86 bd
       -0.0011842847 -0.002298266 -0.010812998 -0.06550607
000360 83 02 82 bd 68 36 c7 bc 66 22 e2 3d d8 09 c7 3d
       -0.06348135 -0.024317935 0.11041717 0.097186744
000370 02 9d bc bd 58 e3 cd 3d 9c d7 84 3d b4 0f f6 3d
       -0.09209634 0.10053128 0.06486437 0.12014714
000380 f9 ba a7 3d 80 b0 e5 bc 93 8c 86 bc c0 7d 60 3d
       0.08189959 -0.028038263 -0.016424453 0.054807425
000390 50 e3 e6 3d e6 c6 91 bd c4 40 a3 bd 2c 0b 4e bd
       0.11273825 -0.07118015 -0.079713374 -0.050303623
0003a0 80 27 d0 3d a7 4d c5 3d b7 cd 36 bd 38 f5 d2 bc
       0.10163784 0.09633952 -0.04462978 -0.025751695
0003b0 70 f5 9c 3c 81 95 02 3d 7c 51 f1 3d 42 55 dc 3d
       0.019160002 0.03188086 0.1178312 0.10758449
0003c0 76 2e cb bd ae 62 f3 3d 38 44 db bc 38 f9 4c 3d
       -0.09920971 0.11884056 -0.026765928 0.05004236
0003d0 c8 ea a4 bc e7 42 38 3d 52 c7 b3 3d 1a e4 e8 bd
       -0.020131484 0.044985678 0.08778252 -0.11371632
0003e0 e2 7c 33 3c 38 bf 83 3d 64 00 65 3d 0a be de 3d
       0.010955067 0.064329565 0.055908576 0.10876091
0003f0 f8 32 c4 bd 4b a1 8a bd aa e0 9e bd 02 98 a9 3d
       -0.09580034 -0.067690454 -0.07757695 0.08280946

model.3.bias f4 [128]
000000 e8 15 99 3d 04 d4 dc bb e5 50 9d 3d ad e4 a8 3d
       0.074748814 -0.0067391414 0.07681445 0.082467414
000010 c3 a0 a9 bd b7 d8 71 bd 09 97 6c bd 8d 94 02 bd
       -0.08282616 -0.059044566 -0.057761226 -0.03187995
000020 12 26 15 3b f4 f1 0c be 69 1e 32 3d 60 e6 ef 3c
       0.0022758287 -0.13764173 0.043486033 0.029284656
000030 8f 6e ed bd c3 35 50 3d c2 73 dd bb 5c 10 04 3d
       -0.11593353 0.05083252 -0.006758184 0.032242164
000040 f2 f9 18 3d a0 d2 2a 3d a0 66 a7 bd d6 41 d7 3c
       0.03734774 0.041704774 -0.08173871 0.02627651
000050 1f 19 22 bd 9b d2 9c bd 18 6f a5 3c 43 e7 94 3c
       -0.03957474 -0.07657357 0.020194575 0.01817668
000060 80 ca d8 bb cd cf 8a 3d ed f1 56 3d 4d 75 a4 3d
       -0.0066159368 0.06777916 0.052476812 0.08030186
000070 b2 5e e4 bd f7 2d fa 3c e1 ea c2 bd a4 5b 53 3d
       -0.11150874 0.030539496 -0.09517456 0.051601067
000080 7c 02 bc bd e1 12 6e bd 25 c8 a0 bd 72 e2 aa 3d
       -0.09180161 -0.058123473 -0.078506745 0.08343972
000090 50 68 df bd 2a e2 9b 3d fa 6e b2 bb 35 c2 f8 bd
       -0.10908568 0.07611497 -0.0054453583 -0.12146417
0000a0 05 c1 a8 bc 25 40 de 3d f6 f1 81 bc 98 aa fc 3b
       -0.020599851 0.10852078 -0.015862446 0.007710766
0000b0 62 93 6e 3c cc 39 22 bd 29 c7 d3 bd 8a a0 de 3c
       0.014561506 -0.0396059 -0.10340721 0.02717616
0000c0 29 8d 35 bd fc 3e 37 bd 47 66 02 3d 58 21 f3 bc
       -0.044324074 -0.0447378 0.03183582 -0.029678985
0000d0 09 de 92 bd b2 59 97 3d b3 23 73 3d c4 1e 16 3d
       -0.07171256 0.07390155 0.059360217 0.036650434
0000e0 57 e8 c9 3d 25 8c 93 bd 10 53 08 bd 36 49 bf bd
       0.098587684 -0.07204465 -0.03328234 -0.09340136
0000f0 c6 d3 f9 3d 95 be 47 bd 18 17 de bd 1a 62 d1 bb
       0.12198596 -0.048765738 -0.108442485 -0.0063898684
000100 40 e7 af 3d 96 44 e0 bd 6d e0 5d bd 2e 2c ae 3c
       0.08589029 -0.10950582 -0.054169107 0.0212613
000110 43 c1 5b bb 5a fe c2 bc 11 c4 e5 3b 6f 06 60 bd
       -0.003353194 -0.023802925 0.0070118983 -0.054693636
000120 ac 93 df 3c 0a 8d 23 bc 14 0e d5 3b cf 27 3a 3d
       0.027292095 -0.009982357 0.0065019224 0.04544812
000130 5a 5b f6 3c 11 49 b4 bd 30 18 e2 3c 14 38 08 3d
       0.030072857 -0.08802999 0.027599424 0.033256605
000140 76 21 c7 bd ae 8e f9 3d 62 b5 a3 3d 0d 84 41 bc
       -0.09723179 0.12185417 0.079935804 -0.0118112685
000150 d6 ed cc 3c 3d 8a d0 bc 1d 15 f0 bd ec 56 bb 3d
       0.025015753 -0.025456542 -0.11722777 0.091474384
000160 b3 b2 71 bc 09 c6 11 3d b4 32 b5 bc 50 3f 23 bd
       -0.014752078 0.03558925 -0.022118904 -0.0398553
000170 a4 f6 ba bd 9b d8 d5 3d c4 f8 b6 3d 34 cc 92 bd
       -0.09129074 0.10441705 0.08934167 -0.07167855
000180 79 32 f6 3d bf 27 41 bc 63 66 fa bc 13 b9 93 bd
       0.12021346 -0.011789261 -0.0305664 -0.072130345
000190 74 77 7a 3d 7a 3c d8 bd 47 61 b2 3d 77 31 b9 bc
       0.061149076 -0.1055841 0.087099604 -0.022606594
0001a0 97 96 cf 3d e0 3e 80 3d 03 d7 a5 3d 59 8e 0e bd
       0.101361446 0.062619925 0.08097651 -0.034803722
0001b0 a2 b0 07 3e f2 a8 be 3d ae 7b 93 bd b6 9c 77 bd
       0.13250974 0.093095675 -0.072013244 -0.060452186
0001c0 72 48 86 bd 78 cb da bd dc 76 46 3d 98 2d c5 3d
       -0.065567866 -0.1068334 0.048453197 0.09627837
0001d0 78 0e 85 3d a7 c5 56 bd f7 88 06 be dc 63 0e 3d
       0.064969 -0.05243459 -0.13138185 0.034763202
0001e0 42 03 00 bd 00 ba 89 3b f5 5f 3e bd 75 a0 81 bd
       -0.031253107 0.004203081 -0.04647823 -0.06329433
0001f0 4a 79 ea 3d aa 69 c6 bd b4 fb ce 3d 39 fa 94 3d
       0.11448915 -0.096881226 0.10106602 0.07274289

model.6.weight f4 [64, 128]
000000 40 5e f7 bc 44 e3 d3 3c da 99 19 3d bd 58 48 bd
       -0.03019631 0.025865205 0.03750024 -0.048912752
000010 b3 00 33 bc 45 2e 75 3c dc 9b 31 bd 72 f8 0e 3d
       -0.01092546 0.014964645 -0.04336153 0.034904905
000020 4f 7b 4c bd 87 3a 82 3d d7 07 1f bd d6 cd 8c 3d
       -0.049922284 0.063588195 -0.038825836 0.068751976
000030 fa 54 25 bc 01 c3 8e bc c0 c4 b6 3d 17 96 76 bd
       -0.010091061 -0.01742697 0.08924246 -0.06020173
000040 35 61 49 3d a1 81 30 3c 0c cf 11 3d 72 39 f1 3a
       0.04916497 0.010773093 0.035597846 0.0018403961
000050 be 06 64 bd c5 3b 12 bd 00 0f ae ba f3 74 23 bd
       -0.055670492 -0.035701532 -0.0013279617 -0.039906453
000060 c6 b6 84 bd 1b 00 85 bc f5 13 9f bd 16 80 a0 3d
       -0.06480174 -0.016235402 -0.077674784 0.078369305
000070 ad 72 9a bc ad ef b3 3b 30 05 49 3d 84 cb 94 bd
       -0.01885351 0.005491218 0.049077213 -0.0726538
000080 52 78 80 3c 43 44 06 bc 34 cd 7e 3c 09 c1 95 bc
       0.015682373 -0.008194986 0.015551854 -0.018280523
000090 df 20 b0 3d f0 e9 ab bd 93 40 11 bd 17 3f df bb
       0.0860002 -0.083942294 -0.035461973 -0.006812941
0000a0 34 10 ac bd 90 26 59 bc f5 3a b3 3d 1c f9 d1 3b
       -0.08401528 -0.013253823 0.087514795 0.00640787
0000b0 8b fc 84 bd 3e 57 3d bd 30 ad 84 bb 6f 45 a7 3d
       -0.06493481 -0.04622578 -0.004048966 0.0816754
0000c0 af d1 a2 bd 05 6e 19 bd 83 36 d2 bd a3 f0 1e 3d
       -0.0795015 -0.03745844 -0.102643035 0.038803708
0000d0 54 3b 47 bc 72 64 18 bd 5a 74 0e bd eb 8f 2e bd
       -0.012160141 -0.037205167 -0.03477893 -0.04261772
0000e0 84 74 cc 3c 1d 2b 65 bd e0 54 c3 3b b8 98 cf ba
       0.024957903 -0.05594932 0.0059610456 -0.001583836
0000f0 5b 2a 4f bd cb c2 b1 3c fd 5b 0b 3d 43 a7 7c 3d
       -0.050577503 0.02169933 0.034023274 0.06168295
000100 6e 9d 32 bc 16 7c 31 3d 3a f8 04 3d 20 29 e6 3b
       -0.010901792 0.04333123 0.03246329 0.0070239455
000110 74 f0 36 bd 7e 21 c5 3d c4 14 5c bd d7 e7 0f 3c
       -0.044662908 0.09625529 -0.05373074 0.008783302
000120 55 17 62 bd 19 0e 4e 3c 8d 04 e7 bc 8c 18 68 bb
       -0.055198032 0.012576603 -0.028200412 -0.0035415022
000130 63 d2 4b bd f4 a6 c4 bc a5 ea ed bb fd dc b4 bd
       -0.049761187 -0.02400539 -0.007260638 -0.08831213
000140 f7 5e 98 3d 6d 57 a6 bd e3 fc a9 3d 4d 6a cc 3c
       0.07439988 -0.08122144 0.083001874 0.024953032
000150 45 26 a5 3d ce 3f 66 3d ae 9f de bc 29 48 8b bd
       0.0806394 0.056213193 -0.02717575 -0.06800873
000160 f6 7b 9e bd 5e 02 58 3d 55 e4 1e 3c bd c4 1e 3c
       -0.077384874 0.052736633 0.009697993 0.009690461
000170 ee e7 8a bd ae 82 cc bc c5 fd 76 3d 75 36 37 bd
       -0.06782518 -0.024964657 0.060300607 -0.04472967
000180 10 f4 87 bd ea 6d 43 bd 6d 03 b4 3d 31 64 27 bc
       -0.06638348 -0.047712244 0.08789716 -0.010216759
000190 a7 f8 95 bd c8 70 81 bc 1d 94 96 3b b8 a2 a1 3c
       -0.07322817 -0.015800849 0.004595293 0.01973091
0001a0 94 63 7d 3d 21 12 c7 3d 1e 95 83 bc 93 e6 47 bd
       0.061862543 0.09720255 -0.016062316 -0.048803877
0001b0 c3 a8 a8 bc 2e 03 e8 bc c0 7b 7d bc cf d9 26 3d
       -0.020588284 -0.028321829 -0.015471399 0.040735062
0001c0 b4 e4 27 3d 30 7b 21 bd 26 a7 01 bd f5 4c 4a 3d
       0.040989593 -0.03942412 -0.031653546 0.0493898
0001d0 15 bf 8b 3c b6 ed 14 3d e4 9a 84 bd 06 ab 65 bd
       0.017058888 0.03635951 -0.064748555 -0.056071304
0001e0 0c 62 89 3d 40 ff 8d ba 9a 97 db bc 15 a5 20 bd
       0.06708154 -0.0010833517 -0.026805688 -0.039219934
0001f0 b0 f7 72 bd 88 3b 1d 3d c3 d8 2f bd 57 cd 1e bd
       -0.059318244 0.03838685 -0.04293133 -0.038770046
000200 66 50 8a 3d da 6a 43 3d a5 16 8f bd 81 8a e0 3c
       0.06753616 0.047709323 -0.06986741 0.027409794
000210 3a d3 75 3d f8 f3 8b 3c 10 b9 9d bb 5e 05 ad bd
       0.060015894 0.017084107 -0.004813321 -0.08448289
000220 ff 37 72 bd 1a f2 3f 3d de d1 a1 3d 22 5d 11 bd
       -0.059135433 0.046861745 0.07901357 -0.03548921
000230 e8 1d 7b 3c dc 8c 2f 3d 3f 2d 69 bd c2 4a 54 3d
       0.015326954 0.042858943 -0.056927916 0.051829107
000240 ee 40 9a bd cf 03 90 3d 8c b2 3e 3d e5 27 34 3d
       -0.075319156 0.070319764 0.046556994 0.04398336
000250 6f e4 3c bc f8 8d ae 3c a7 40 2d 3d 6e 75 f7 bc
       -0.011529072 0.02130793 0.042297985 -0.030207362
000260 1a e2 6b bd dc aa 34 3d 4f 8c 3f bd ab d8 a9 bd
       -0.057588674 0.044108257 -0.046764668 -0.08293279
000270 be 61 2a 3a 0b 3d 1c bd dd c9 21 bd ec 7a ec 3b
       0.000649955 -0.038144153 -0.039499152 0.007216802
000280 26 1c 5e 3d ff e8 83 3d fa b9 a3 bd 23 56 0a bd
       0.054226063 0.06440925 -0.079944566 -0.033773553
000290 ea 2b f7 bc 52 cc 4e bd e9 b3 05 bc 77 60 97 3d
       -0.030172307 -0.050487824 -0.00816057 0.07391446
0002a0 58 58 9c bd 91 76 a5 bd a2 f9 fe bc 50 f1 d2 bb
       -0.07634038 -0.08079255 -0.031124894 -0.006437458
0002b0 37 f0 0f bd 5f 81 a7 3d be 00 b8 bd 82 8e 0a 3d
       -0.035141196 0.081789725 -0.089845166 0.033827312
0002c0 be 2a 48 bd 3d 39 ab bd 75 07 b5 3d de 49 bd bd
       -0.048868887 -0.08360527 0.08839313 -0.09242605
0002d0 58 74 8c bd 7e f9 9a 3d 4e 49 6d bd fc 3f aa bd
       -0.06858128 0.07567118 -0.057931237 -0.08312985
0002e0 67 95 6c bd bc 64 51 3d f8 f2 9e bc 9d 0a 76 bc
       -0.05775967 0.05112146 -0.019402966 -0.015017179
0002f0 d1 3a a9 bc f6 3d 97 bd 44 c4 74 bd 1c 94 a0 3d
       -0.020657929 -0.07384865 -0.059757486 0.078407496
000300 43 ea 94 bd 4e 41 51 bd c7 a6 b8 3d b9 43 ac bd
       -0.072712444 -0.05108767 0.09016185 -0.084113546
000310 ff ec 56 bd 5f b1 3a bd c8 a0 c9 bc 4d 0c 82 bd
       -0.05247211 -0.04557931 -0.0246128 -0.063500024
000320 71 26 a1 bd f2 0b 0e 3d 0b 27 b2 bd fe e4 80 bc
       -0.0786866 0.03467936 -0.08698853 -0.015734192
000330 aa dc 4a 3d 00 a1 96 b9 b1 02 73 3d ba 35 ac bd
       0.049526848 -0.00028730184 0.05932874 -0.08408685
000340 6d 53 89 3d a0 80 e8 3c 0f 97 f0 bc c3 0e ab 3d
       0.06705365 0.028381646 -0.029368905 0.08352425
000350 9e 03 2d bd 3f 05 71 3c 4a 07 69 3d 03 b8 52 3c
       -0.042239778 0.014710723 0.056891717 0.012861255
000360 a3 13 6c bd d2 c5 a9 3d c5 01 84 3d 88 f7 08 3c
       -0.057635915 0.08289684 0.0644565 0.008359797
000370 c0 19 0e bd 6c b1 fc bc 1a c8 9a 3d e7 04 3b bd
       -0.034692526 -0.03084632 0.075576976 -0.045658972
000380 00 7b 87 bb 34 55 8f 3c 74 7a 9f 3d f5 c5 63 bd
       -0.004134536 0.017496683 0.07787028 -0.05560871
000390 0c 58 34 3d c8 e0 a8 bd 36 80 b0 3d 28 ed ef 3c
       0.04402928 -0.082459986 0.08618204 0.02928789
0003a0 d9 5c 5a 3d 06 0b 29 3d 95 d6 83 bd d6 74 d7 bc
       0.053311203 0.04127028 -0.06437413 -0.026300829
0003b0 46 0c aa bb 50 9a 2e bd 80 0c 4e 3c bf 42 bf bd
       -0.0051894514 -0.042627633 0.012576222 -0.09338903
0003c0 28 06 9c bd 70 b5 b7 3d 40 01 2d bd 00 54 c1 3c
       -0.07618362 0.08970153 -0.04223752 0.023599625
0003d0 a2 e0 34 3d c0 e4 8c bd 3c eb 0c bc 06 85 bb 3c
       0.04415954 -0.06879568 -0.008601006 0.022890579
0003e0 78 1d 1c 3d 00 8f 0b bc 00 c6 d7 3a 16 6f 87 3d
       0.03811404 -0.008517981 0.0016462207 0.06612985
0003f0 de ad 02 3c 68 d6 a8 bd 3d 08 8f bd 0a 39 59 bb
       0.0079760235 -0.0824402 -0.06983993 -0.003314557

model.6.bias f4 [64]
000000 31 8b b2 3c d8 d7 a1 bd 10 da 87 3c b1 f8 71 bc
       0.021794887 -0.07902497 0.016583472 -0.014768765
000010 db b0 62 3c 74 b1 62 bb e7 45 c0 bd bc 13 98 bd
       0.013836111 -0.0034590634 -0.09388333 -0.07425639
000020 9e 09 9c 3d 5c f5 0c 3d 48 f1 f4 bc 0e e3 ab bd
       0.07619022 0.03441368 -0.029900208 -0.083929166
000030 e7 5a ac 3d cf bf a4 3d d2 ad b8 3d 5b b1 d2 bd
       0.08415776 0.08044397 0.090175286 -0.10287734
000040 50 93 7a bd 62 06 87 3d f3 fa 83 3d 28 d6 07 bd
       -0.061175644 0.06593014 0.06444349 -0.03316322
000050 7b 13 64 bc 8a 95 05 bd f5 b1 67 3c 01 8f 88 3d
       -0.01392066 -0.032613315 0.014141549 0.06667901
000060 94 72 87 bd d3 e3 72 bd f9 8a 71 bd 30 bb a9 3c
       -0.06613651 -0.0592993 -0.058970425 0.02071914
000070 2c e7 fa 3c a0 37 39 3d e1 77 8e 3d ea 1c 0e bc
       0.03062781 0.045219064 0.06956459 -0.008673886
000080 f2 44 38 bd 21 4b 1f bd 1c b7 32 3d 85 f3 b8 bd
       -0.044987626 -0.038890008 0.043631658 -0.09030823
000090 68 73 ac 3c c3 74 d0 bb 04 34 61 bd 9c d2 95 3d
       0.021051124 -0.0063615753 -0.054981247 0.07315561
0000a0 d2 7e 89 bd f3 a5 9a bd 68 cf 07 3d cc 18 1c 3d
       -0.06713642 -0.075511836 0.033156782 0.038109586
0000b0 9c b0 18 3b 64 25 94 bd 67 75 72 3c aa 2f fc bc
       0.0023298627 -0.07233694 0.014798499 -0.030784447
0000c0 4b 07 93 bd 45 80 91 3d 2f 7a 52 3d 22 07 85 bd
       -0.071791254 0.071045436 0.051386055 -0.06495501
0000d0 c2 3b 82 bd 8f 5c 5d 3d 94 9e 6d 3d 66 d2 c2 38
       -0.06359054 0.05404335 0.05801256 9.2898306e-05
0000e0 e1 f5 00 3d b0 a8 3a 3d 20 72 d4 bc 7c 87 66 bd
       0.03148449 0.04557103 -0.025933325 -0.05628155
0000f0 37 ba 94 3c 70 ff 73 bd 42 c3 92 bc ab cc f2 3c
       0.0181552 -0.059569776 -0.017915372 0.029638609

model.9.weight f4 [4, 64]
000000 51 52 c8 3c 9b 0b fc bd 87 63 79 3d 5c e1 83 bc
       0.024453314 -0.12306901 0.060885932 -0.01609867
000010 65 27 98 3d 6d 53 5e bd f4 fd 92 3c 54 50 73 3d
       0.07429389 -0.05427878 0.01794336 0.05940278
000020 bd 48 89 bc 95 c0 5b bd 58 bc 11 3d b1 52 73 3d
       -0.016758317 -0.053650457 0.03558001 0.059405033
000030 bf 2b 29 3d 41 4b a7 3d 98 f1 b8 3d 98 34 9a bd
       0.041301485 0.081686504 0.09030455 -0.07529563
000040 39 eb eb bd e8 dc 79 bd 60 c7 46 bd 4a a6 93 bc
       -0.115194745 -0.06100169 -0.048529983 -0.018023629
000050 65 6e 17 bd cf 3e 83 bd a6 0e cb bd 13 d9 2b 3d
       -0.036970515 -0.06408464 -0.09914903 0.041955065
000060 94 cb 75 3b 3b 0d 21 bd eb 95 ea 3d f1 6f 30 bd
       0.0037505375 -0.03931926 0.11454376 -0.043075506
000070 c9 34 e0 bc 53 0c cf bd 03 d1 96 3d be fe e9 3d
       -0.02736892 -0.101097725 0.073640846 0.11425541
000080 39 bd 8a 3d f7 3e 42 bd c5 97 4d 3b 48 b2 c9 bd
       0.067743726 -0.04742333 0.003137098 -0.098484576
000090 a7 c2 b3 bd 76 b1 94 bc 24 2b 9c 3d 28 91 b2 bd
       -0.08777361 -0.018151026 0.07625416 -0.087190926
0000a0 ee a0 4e bd c5 d3 a5 bd 80 d5 c5 3d 7b b7 0f 3d
       -0.050446443 -0.080970325 0.096598625 0.03508709
0000b0 10 8b 6d bd 44 ba 95 3d d9 38 d2 bc ec 45 a3 3d
       -0.05799395 0.07310918 -0.025661873 0.07972321
0000c0 e8 58 1b bd 69 e6 2b 3d ac 08 55 bd a2 70 a9 bd
       -0.037926584 0.041967783 -0.052010223 -0.08273436
0000d0 4e c8 b5 3c 0e 6f fe 3d 68 71 2f bc 79 e9 58 bd
       0.02219024 0.12423526 -0.0107081905 -0.052957032
0000e0 bc 4d 97 bd fa 3f dd 3d 7a 1b dd bc 30 96 02 bd
       -0.073878735 0.10803218 -0.02699064 -0.03188151
0000f0 18 2a c9 3d ed bd b2 bd b3 b2 c9 bd c8 67 80 bd
       0.09822482 -0.08727632 -0.09848537 -0.06269795
000100 f8 a9 0f bd 2d 25 98 bc 9a 61 9e 3d 8a 4c 84 3d
       -0.035074204 -0.018572414 0.0773346 0.06459911
000110 9a 3f 7b 3d df af 8d 3d 25 dc b9 bd 6a b0 ce 3d
       0.061339952 0.069183104 -0.09075192 0.10092242
000120 22 a3 17 bc 20 81 a5 bd 08 73 a8 3c 21 bb 3c bd
       -0.0092552025 -0.08081269 0.020562664 -0.046076898
000130 38 a2 dc 3c 87 49 78 3d 12 ba 62 bb 94 07 2b bd
       0.02693282 0.060616996 -0.003459577 -0.041755274
000140 88 e9 48 bd 42 ca a3 3d f7 48 bb 3c 11 bb a2 3d
       -0.049050838 0.07997562 0.02286194 0.07945836
000150 47 25 ba bd 04 67 29 bd ed 94 6f 3d 04 69 4f 3d
       -0.09089141 -0.04135801 0.058491636 0.05063726
000160 90 31 76 3d 10 a2 24 3d ed 4b 90 3d 21 c9 92 3d
       0.06010586 0.040193617 0.07045732 0.071672685
000170 b8 83 c6 3d 10 76 09 3d f2 f9 fd bd db 66 dd bd
       0.09693092 0.03355986 -0.12401189 -0.10810634
000180 1f 3a a1 3d 6e 3e fa bc 23 f4 f3 bc fd cf f2 bd
       0.07872414 -0.030547347 -0.0297795 -0.11856077
000190 da aa 0a bc 12 2c 3b 3d 0c ec 11 bd 91 cd c9 bd
       -0.008463586 0.045696326 -0.035625502 -0.09853662
0001a0 35 f2 49 bd 98 44 f1 3d 37 3d 9d 3b d8 2d 5d bc
       -0.049303252 0.11780661 0.004798557 -0.0134996995
0001b0 66 64 d1 bc 92 93 83 3d 02 8b 69 3d 8e 8c bc bc
       -0.025560569 0.06424631 0.057017334 -0.02301624
0001c0 83 e7 42 bd 4d f1 87 bd e9 ba 70 3d fb 4c d6 bb
       -0.047584068 -0.06637821 0.058772 -0.0065399385
0001d0 b4 43 dd bd b8 fc f3 bd 43 ef f7 3d 60 af 99 3d
       -0.10803929 -0.11913437 0.121061824 0.07504153
0001e0 d0 01 c4 bd f5 af f8 bd f9 98 db 3d 8d 1c 1f 3d
       -0.09570658 -0.12142936 0.107225366 0.038845588
0001f0 b5 17 42 bd 51 93 cd 3d 54 fc 7f bd c2 36 86 bd
       -0.04738589 0.10037864 -0.0624965 -0.06553413
000200 b1 cd 73 3d 3d 75 cc bd 9b 38 de 3d e9 19 3e 3d
       0.059522334 -0.09983299 0.108506404 0.04641143
000210 ae cd c1 3d 8a c6 a4 bd 0f 5a 9d bd a7 8c 0a bd
       0.094630584 -0.08045681 -0.07683193 -0.033825543
000220 0f 1f 05 3d d6 a6 68 bd f2 92 ec 3d ae b0 af bd
       0.032500323 -0.056799732 0.11551465 -0.08578621
000230 8d 27 eb bc 0d c3 cb 3d d0 e8 4c bd d9 1a 8b bd
       -0.028705383 0.09949312 -0.050026715 -0.0679223
000240 3d a4 72 3d 0c 64 0a 3d 65 e7 56 3d 17 fc fd bc
       0.05923866 0.03378682 0.05246677 -0.031003995
000250 e5 c9 9f bd 8c ab aa bd 55 cf e8 bd 6f 6b 27 bb
       -0.0780218 -0.08333501 -0.113676704 -0.0025546213
000260 20 60 9f bd b5 d9 01 3d 03 4e 91 3d aa 2a b9 bd
       -0.07782006 0.031701762 0.07094958 -0.09041341
000270 b9 be 92 bd 7e da eb bd 01 91 c0 bd da d0 91 bd
       -0.07165284 -0.115162835 -0.09402657 -0.071199134
000280 af 7f e0 3d 5c 84 86 3d 93 46 89 bb 1c b9 8a bc
       0.10961854 0.06568214 -0.0041893213 -0.01693397
000290 e3 06 c4 bd 06 e3 ce bd 7e 78 91 bd d7 4e 71 3d
       -0.09571626 -0.10101895 -0.0710306 0.05891308
0002a0 c7 1d 0c be 02 79 f5 bd 21 1c df bd 45 b6 82 3d
       -0.13683234 -0.11985971 -0.10894037 0.063824214
0002b0 06 85 80 bc 81 a4 d2 bd 05 34 c6 bc 98 cc 05 bd
       -0.01568843 -0.10285283 -0.024194727 -0.03266582
0002c0 9d 6b ac bc c2 32 1e 3d 45 8a e0 3d 06 a1 8f bc
       -0.021047408 0.038622625 0.10963873 -0.017532837
0002d0 2d 09 8d bd 1f 95 f7 bc 5f 65 eb bd 91 c7 29 bd
       -0.06886516 -0.030222474 -0.114939444 -0.041450087
0002e0 5f 38 0c 3d 17 b8 3a 3b 64 b0 30 bc cd 8a 28 3d
       0.034233447 0.0028491074 -0.010784242 0.041147996
0002f0 95 07 bc bb 75 b7 81 bc 9a 4d a7 bd 73 66 e2 3b
       -0.0057382085 -0.01583455 -0.08169098 0.0069091856
000300 b9 b4 cc bd 3a 0e fd bc 95 07 c7 3d f1 d6 ae bd
       -0.099954076 -0.030890573 0.09718243 -0.085370906
000310 40 85 e1 3c 49 d4 d8 3d 86 73 d7 bc 6e 36 1e 3d
       0.027529359 0.10587365 -0.026300203 0.038626127
000320 09 b4 86 bd 7a d4 73 3d 26 9a ed bd 1b 9d e7 3d
       -0.06577308 0.059528805 -0.11601667 0.11309262
000330 e5 b1 e3 bd 95 ab 69 3d 13 d6 ca 3d 42 d1 b6 bd
       -0.11117915 0.0570484 0.09904113 -0.089266315
000340 28 43 6c bd c8 6a 7e 3d 63 40 5f bb fc 39 b9 3c
       -0.057681233 0.062113553 -0.0034065477 0.022610657
000350 54 50 8c bd e7 ac dd bd 80 7f ba bb 68 1d 92 bd
       -0.06851259 -0.10823994 -0.0056914687 -0.07134515
000360 3c e9 ad 3d 0b 7d 79 3d c2 f0 55 3d 28 04 4e bd
       0.084917516 0.060910266 0.052231558 -0.050296932
000370 6b 8d 8d bd 4f c4 1b bd bd 1d 91 bd 27 02 0e 3d
       -0.06911739 -0.03802901 -0.0708575 0.03467002
000380 a8 e6 87 3c ec 5b bd bd b1 18 a0 3d ff 08 98 3d
       0.016589478 -0.09246048 0.078172095 0.07423591
000390 e3 f3 a2 3b a3 84 a6 3d d6 16 be bd 62 b2 f5 bd
       0.004972921 0.08130767 -0.09281699 -0.119969144
0003a0 a4 80 ec bd 24 8d d7 3b d6 5d 8a bd 9b 11 b4 3c
       -0.11547974 0.0065781046 -0.06756179 0.021981051
0003b0 e2 0d ac 3c 41 32 fc bb b4 5b c5 3c 40 65 5b bc
       0.021002714 -0.0076964204 0.024091579 -0.013390839
0003c0 49 8c ce 3d 84 fd 8c 3c d1 a4 f0 bd ec 38 fc 3d
       0.10085351 0.01721073 -0.11750186 0.123155445
0003d0 59 30 d2 3d 12 8d ef bd 54 b3 83 bd 52 a1 a6 3d
       0.10263128 -0.11696829 -0.064306885 0.08136238
0003e0 05 50 b4 bd a5 b2 d6 3b 7d 80 76 3d 09 6a af bd
       -0.08804325 0.006552058 0.06018113 -0.085651465
0003f0 e2 05 ad 3d 68 a8 9a 3d 90 b1 0a bc b5 b2 09 3d
       0.08448388 0.07551652 -0.008465186 0.033617694

model.9.bias f4 [4]
000000 7c 54 d3 bc e2 a1 c6 3d ba 80 7b bd 7d 64 aa 3d
       -0.025797121 0.096988454 -0.06140206 0.08319948
